model.tflite (tflite, 52104 bytes, 8 tensors)

arith.constant f4 [16, 32]
000000 57 d8 9d 3d 50 dc 13 bf a7 26 84 3e 74 55 7a be
       0.07707279 -0.57758045 0.2581074 -0.2444666
000010 80 29 14 3f a2 50 65 be 85 6f b1 3e 02 8f ef be
       0.57875824 -0.2239404 0.34655395 -0.46788794
000020 88 f5 da be 8b d8 90 3e b7 26 33 be 55 d0 f4 bb
       -0.4276545 0.2829021 -0.17495237 -0.007471124
000030 09 7c 12 3d 40 8d 4b 3e 5a 0a bd 3d f6 a8 17 bf
       0.03576282 0.19878101 0.0923049 -0.5924219
000040 fe 39 87 3e 4a 78 87 be 6d e0 8c 3e 87 4b a4 3e
       0.26411432 -0.2645896 0.27514973 0.32088873
000050 1f d0 20 bf 3e 43 30 3e 3e 9d 88 bf ea 7c 86 3e
       -0.6281757 0.17213151 -1.0672987 0.26267177
000060 8c f4 83 bf 7f 97 a6 be 16 ac ed bd 5d ff 19 be
       -1.0309005 -0.32537457 -0.116050884 -0.1503882
000070 1c 70 00 3f b1 b4 98 3e 64 a0 ea be 66 32 47 bf
       0.50171065 0.29825357 -0.45825493 -0.77811277
000080 f9 0d 5d bd 04 db 1c be b4 64 81 3d 07 7f c7 bd
       -0.053968403 -0.15317923 0.06318036 -0.097410254
000090 01 29 ae bc 75 0d 93 be a6 34 4f be 4f b4 06 3f
       -0.021259787 -0.28721204 -0.20234928 0.5261888
0000a0 2c f5 ae bf 66 22 fe 3e f7 29 8a 3e 6d 06 e2 be
       -1.366857 0.4963562 0.26985142 -0.44145527
0000b0 da 66 4c bf 7d 1c 27 bf 92 60 e2 3d f7 f1 9d bc
       -0.7984444 -0.65277845 0.110535756 -0.019280417
0000c0 66 a4 d2 3e 0a 57 91 be ea 29 10 bd f2 a0 3a be
       0.4114105 -0.28386718 -0.035196222 -0.18225458
0000d0 ce 7d ca 3e fb ee ff be be a0 1d be c4 8f 9e 3e
       0.39549106 -0.49987015 -0.1539335 0.3096906
0000e0 86 c8 aa bd e9 52 ff 3e 86 32 f8 bc e2 11 8d bf
       -0.08339028 0.49867943 -0.030297529 -1.1021082
0000f0 81 ed cd be 46 26 a1 3e 3b b7 ad 3e 42 b7 53 be
       -0.40220264 0.31474513 0.33928856 -0.20675376
000100 89 af 4b 3f 1f 90 b3 3e 2c 05 2b bf a8 47 11 3e
       0.7956472 0.35070893 -0.66804767 0.14187491
000110 47 4e 3d 3d e3 98 14 3e 84 a2 cd be 9e 73 bf 3d
       0.04621723 0.14511447 -0.40163052 0.09348224
000120 08 f7 38 c0 33 15 ab 3e 42 4f ac 3e a5 c4 4d be
       -2.8900776 0.3341461 0.3365422 -0.20094545
000130 45 38 8a 3e c3 10 e5 3e 39 28 c0 be 5d 67 e7 bd
       0.26996055 0.4473935 -0.37530687 -0.11299012
000140 71 21 2c bd d3 42 4d 3d 21 06 e1 3e ba ee d8 3d
       -0.04202408 0.050112557 0.43949988 0.105924085
000150 8e b4 ed bd 61 0f 98 3e 11 da fd 3d b7 05 43 3e
       -0.11606704 0.29699233 0.123951085 0.19045149
000160 d9 03 15 bf af 4e 31 3e f1 5a 1b bf 8a 76 83 bf
       -0.58208996 0.17315172 -0.6068564 -1.027055
000170 cf 73 9c bf 37 04 e7 be a1 f1 4e be e2 89 03 bf
       -1.2222842 -0.45120403 -0.20209362 -0.5138227
000180 92 91 ab 3e 04 59 6c 3e 0e 85 9b 3d 95 83 1b bd
       0.335095 0.23080832 0.075937375 -0.037967283
000190 88 4d dd 3e 35 46 3c bf 6a 0c 34 3d 80 0a a7 be
       0.43223214 -0.7354463 0.04395715 -0.32625198
0001a0 20 29 1c bf 8f 5c 87 3d b0 c9 00 3f c4 34 a5 bc
       -0.6100025 0.06609451 0.5030775 -0.020166762
0001b0 5f 0b 20 bf f9 2b 69 bd c1 7c a0 3d 90 68 81 bf
       -0.6251735 -0.0569267 0.07836295 -1.0110035
0001c0 00 81 b4 3d 0f 5f 43 be 3a 60 1a 3e 0e 14 48 bf
       0.08813667 -0.1907923 0.1507577 -0.781556
0001d0 f1 ae bd 3e ea ed 09 bf 41 39 1f bf 75 bc 0e bf
       0.37047532 -0.53878653 -0.6219674 -0.5575631
0001e0 6d 19 01 bf 4a 66 47 3e 88 57 18 3f 76 6d 0b 3f
       -0.5042942 0.19472614 0.5950856 0.544639
0001f0 96 ab 03 bf e9 dd fd 3c 62 7d 04 be 56 fd 22 3f
       -0.51433694 0.030989604 -0.12938455 0.6366781
000200 28 ee e9 3e ec db f9 be e5 39 6b 3e 1c e3 07 3f
       0.4568951 -0.488006 0.22971304 0.53080916
000210 67 c7 35 be 65 bb 97 be 05 ab b7 3e 6d 65 82 3e
       -0.17751847 -0.29635158 0.35872665 0.25468007
000220 0c a5 af be 84 f7 24 bf 2d d8 5c bf 5a f6 d4 bc
       -0.34305608 -0.6444018 -0.8626736 -0.025996376
000230 44 2d 0c be de 1e e9 3e 3b 09 80 bd be a0 66 bf
       -0.13689142 0.45531362 -0.062517606 -0.90089023
000240 8c 6e 5c bf a5 03 9d be 07 14 0d 3f c8 8d 09 3f
       -0.8610618 -0.30666843 0.55108684 0.53731966
000250 62 a2 c6 be 0a cf ee be 26 d2 d1 be c1 57 89 3e
       -0.38795763 -0.46642333 -0.40980643 0.26824763
000260 d9 d5 23 bf c9 10 75 bf 3b f6 a5 3e 21 94 28 3f
       -0.6399818 -0.9572874 0.3241442 0.65851027
000270 8a 8c 57 3e 65 dc 81 3d ea 47 2e 3e 6d e1 25 3e
       0.21049705 0.06340865 0.1701962 0.16199274
000280 1a cd 9a 3e c0 a2 5d 3e 8f b1 00 3d 8b f8 81 bc
       0.30234605 0.21644115 0.031419333 -0.015865585
000290 e6 45 b1 bc d7 fd 5c be 3b 6e 1a 3b 4d e5 1a bf
       -0.021639775 -0.21581207 0.0023564238 -0.60506135
0002a0 5c 6b 90 3d 6e fd 58 be 69 d0 e5 3c ba a3 3c 3d
       0.07051727 -0.21190426 0.02805348 0.04605458
0002b0 6a ba 3c 3e 8f 15 1f 3e ae 39 a8 3e d0 eb b4 3e
       0.18430486 0.15535568 0.32856506 0.3533616
0002c0 1f e0 3f be 6e 78 81 3f 34 96 5f be 4d 70 58 3e
       -0.18737839 1.0114877 -0.21834642 0.2113659
0002d0 c8 08 82 bf 88 4e 0c 3f 43 e8 1b 3f 14 0b ae 3e
       -1.015893 0.5480733 0.6090128 0.33992827
0002e0 fc 2b 94 be 62 56 73 3e 96 89 d1 bb 2c ad 28 be
       -0.28939807 0.23763421 -0.0063945753 -0.1647231
0002f0 48 b8 15 bf e3 b3 6e bf d7 fc cd 3e 70 83 a6 be
       -0.58484316 -0.93243235 0.40231964 -0.32522154
000300 f2 67 38 bf 7a 2a 16 bf d4 51 b9 3e ce 4f 18 bf
       -0.7203361 -0.58658564 0.36195242 -0.5949677
000310 19 2f df bd f0 b6 5a bf a0 aa 61 be ce 35 15 bf
       -0.10897655 -0.8543539 -0.22037745 -0.58285224
000320 9b 63 2e be 4d bc 44 3f 62 dc 2d bf 09 92 2a 3f
       -0.17030184 0.76849824 -0.679144 0.6662908
000330 f4 2d 69 be 54 3d d2 3e 7e 80 12 3f 8d a6 8d bf
       -0.22771436 0.41062415 0.57227314 -1.1066452
000340 22 f8 22 be 70 11 81 3d 87 7f 2e 3e 26 45 9a bf
       -0.15914968 0.06302154 0.17040835 -1.2052352
000350 a1 88 3d 3f 04 92 09 bf b1 ae c8 be 19 c9 9a bd
       0.74036604 -0.5373843 -0.3919578 -0.075578876
000360 1f 2a 86 3d 65 10 0a 3f 30 bb f0 3e bd 36 a5 be
       0.06551003 0.53931266 0.47017813 -0.32268324
000370 96 93 f4 3e ad 6b 5b be c9 8c 9d be d6 09 c1 be
       0.4776885 -0.21427794 -0.30771473 -0.37702817
000380 ec 1f 0d bf 18 a0 86 3e 5a 30 95 be f7 d8 3d bf
       -0.55126834 0.26294017 -0.29138452 -0.7415919
000390 97 bb 1a bd 0c 48 dd be 96 05 04 bd b9 60 c5 3e
       -0.037776556 -0.4321903 -0.03223189 0.38550356
0003a0 86 6d cb 3d f2 ce a8 be d0 d1 63 3e b4 5e ce 3c
       0.09932999 -0.32970387 0.22248006 0.025191642
0003b0 62 d9 3a bf 34 83 f3 be 40 8d 87 3f 01 f5 44 3e
       -0.7298795 -0.47561038 1.0589981 0.19234087
0003c0 18 04 2f 3d 5e 5b e6 bd 8d cd 21 bf 53 fb 81 3e
       0.042728513 -0.11247896 -0.6320427 0.25387058
0003d0 7f 73 55 3e f6 95 3a bf c7 f4 35 3e 65 ff 76 be
       0.2084484 -0.7288507 0.17769156 -0.24120863
0003e0 4c da 0f 3f 8c 6a 77 be 1b 4a 21 3d 99 22 b2 3d
       0.5619247 -0.24161738 0.039377313 0.08698005
0003f0 ff 38 2e 3f 60 f8 c1 be a7 57 53 3e c4 42 6b 3e
       0.6805572 -0.37884808 0.20638905 0.22974688

arith.constant1 f4 [32, 64]
000000 22 34 82 be f0 8a 39 bf 22 77 24 bd bb c7 33 3f
       -0.254304 -0.72477627 -0.040152676 0.7022664
000010 98 7d 0a 3f 5d b2 fd be d3 f8 b1 bd 82 3b 49 3e
       0.5409789 -0.49550143 -0.086900376 0.19651607
000020 ff cb f8 3e cf b8 35 bf 33 11 0b be 7a 97 e5 bc
       0.48593137 -0.7098512 -0.1358078 -0.028026331
000030 3e 84 93 3e 85 28 91 3e 00 fa 2e 3e 29 50 b6 be
       0.2881183 0.28351226 0.17087555 -0.35608032
000040 b5 78 ab bd 72 85 1e 3e 2e 7e a1 bd 2f 8b 21 be
       -0.083726324 0.15480593 -0.07885395 -0.1577575
000050 da 12 a8 3e c3 0d 17 bf d9 68 c3 be 6a 91 77 3d
       0.32826883 -0.59005374 -0.3816593 0.060441412
000060 45 05 ae 3f 31 cd d2 3d e0 e8 9a 3d c1 23 af 3d
       1.3595358 0.102930434 0.07563949 0.085517414
000070 a6 31 fe 3d b4 92 01 be 34 b2 ec 3e e6 41 f7 3e
       0.124118134 -0.12653619 0.46229708 0.48292464
000080 c1 c0 18 3f 5c e8 7b be a2 4d 39 be 1f 8f eb bd
       0.5966912 -0.24600357 -0.18096021 -0.115019076
000090 3e 4e 02 3f 27 f8 de 3d a9 2a cc 3e 88 87 8a be
       0.5090064 0.10887175 0.39876297 -0.27056527
0000a0 c2 55 e1 3e 4d 91 fb be 64 41 33 3f 09 f4 0a be
       0.4401074 -0.49134293 0.70021653 -0.13569655
0000b0 29 8a 31 3e 03 76 df bd 3d a0 13 be 0c 41 e4 be
       0.1733786 -0.10911181 -0.14416595 -0.44580877
0000c0 9e 32 d5 be 2a 93 00 3f c1 ab 15 3d 2a 65 c4 bd
       -0.4164018 0.50224555 0.03654075 -0.09589608
0000d0 0b c8 4d 3e 3f 33 3e 3d 50 91 c9 3e 93 33 ec bc
       0.20095842 0.04643559 0.39368677 -0.028833186
0000e0 99 bc 9e bf c6 ed 0d be 5e e4 04 3e 28 3b 5e be
       -1.2401305 -0.13860235 0.1297774 -0.21702254
0000f0 f6 97 ab 3e da d1 9e be 2f c8 88 bf 3d 58 d8 3e
       0.33514374 -0.3101948 -1.0686091 0.4225482
000100 0c 02 fe bd 62 2e c7 3e 6a 49 1d 3f 98 00 6c be
       -0.12402734 0.38902575 0.61440146 -0.23047101
000110 8d 49 18 bf 77 ca f0 3e 4b 75 39 3e 84 1c 84 bf
       -0.5948723 0.47029468 0.1811115 -1.0321202
000120 83 83 14 3d 52 37 44 bf 76 23 57 3e a1 de a0 3e
       0.03625823 -0.7664691 0.21009621 0.31419852
000130 ce 95 8b 3e 9a 78 af be fb 7c 3a 3e f1 41 3b be
       0.2726273 -0.342717 0.18211739 -0.18286873
000140 68 e4 2d 3e ec 82 d8 bc fa 34 93 3e 10 46 f0 be
       0.16981661 -0.026429616 0.28751355 -0.46928453
000150 12 1b 62 bf 12 b8 97 3e 4c a0 95 3e 6b e8 81 be
       -0.88322556 0.29632622 0.2922386 -0.25372633
000160 05 c3 62 bf 4c c0 ad bd 5d cd 54 3e 07 34 2e 3c
       -0.88578826 -0.08483943 0.20781465 0.0106325215
000170 e9 0c 74 be 4f 7c 2d bf cd df 0b be f9 38 ca 3d
       -0.2383305 -0.67767805 -0.13659592 0.09874148
000180 33 fd b3 be d9 81 90 3e 8f 98 bd bc 8b 91 02 bf
       -0.35154113 0.28224066 -0.023144035 -0.5100333
000190 f3 fa 9f 3c 7c 6f d2 3a 8b e7 ae be c0 b5 6e be
       0.019528842 0.0016054953 -0.34161028 -0.2331152
0001a0 c9 d3 37 be 58 44 6d 3e 4c 3f f2 3d 74 3e cc 3e
       -0.17951883 0.23170602 0.11828479 0.39891398
0001b0 a5 4d ff 3e 30 9c aa 3c c8 ad 98 be a3 53 1b 3e
       0.49863926 0.02082643 -0.29820085 0.15168624
0001c0 df 06 9a 3e 49 5d 34 bc b1 60 93 bc 51 fa 5c 3e
       0.30083367 -0.011008569 -0.017990442 0.21579863
0001d0 b8 18 e6 3d 16 94 ba 3d 11 e6 83 bf 43 eb b3 bd
       0.112351835 0.091102764 -1.0304586 -0.08785107
0001e0 8e 27 03 3f dc a5 f1 3d ba e2 00 3e 0c 3b f6 3e
       0.5123223 0.11799213 0.1258649 0.48091924
0001f0 b2 88 aa 3e 36 e0 d3 3d 20 d1 ce 3d 05 3a 25 bf
       0.33307415 0.10345499 0.10098481 -0.64541656
000200 e8 7d c6 3e 6e ad 20 bf f1 b5 9e 3e 0f 65 1d 3e
       0.38767934 -0.6276463 0.30998185 0.15370582
000210 89 0d 07 3e 6b de e2 3c 7e 33 bf 3d 4c 24 05 3e
       0.13188757 0.027693948 0.09335993 0.13002127
000220 af 08 8e 3e db ad 55 3e 62 a8 96 bd 96 d2 73 3e
       0.27741 0.20867102 -0.07356335 0.23810801
000230 93 e7 61 3c 36 97 29 3d 44 d1 e8 3d 06 18 13 3f
       0.013788122 0.04140397 0.11368039 0.5745853
000240 03 aa c3 be 93 48 aa be df 8d aa bd a5 4c 0a 3e
       -0.38215646 -0.33258495 -0.08327841 0.135058
000250 f7 f2 50 bc cd d3 77 3e ba cd 9c be 71 00 10 3e
       -0.01275324 0.2420189 -0.30625707 0.14062668
000260 37 31 95 3c 00 16 f5 bd 1a bd e9 3d 20 c6 16 3e
       0.018211944 -0.11967087 0.114130214 0.14724016
000270 89 5e cd 3e 31 11 c6 3e bf 8a d8 3d fe b3 f0 3e
       0.40111187 0.3868499 0.10573339 0.47012323
000280 e1 08 eb 3e 2c 66 fe be c1 84 75 be ad ae 8b 3e
       0.45905212 -0.49687326 -0.23976423 0.27281705
000290 83 17 cf bc 64 d1 d7 bc f0 88 69 bd 8a c5 d8 3e
       -0.025279766 -0.026344962 -0.05701536 0.4233821
0002a0 02 e3 80 3d 2e 94 28 be de f0 a1 3e ef 0b 9e 3d
       0.06293298 -0.16462776 0.3162908 0.0771712
0002b0 74 d9 4e 3e bd 91 77 bd e7 15 95 3e 25 48 69 be
       0.2020014 -0.06044172 0.29118273 -0.22781427
0002c0 ba 48 d1 bc 9e 49 09 bb 8e b1 c0 3e cc fb 2b 3e
       -0.025547374 -0.002094842 0.37635463 0.16795272
0002d0 97 a4 13 be 1a 25 87 3e 85 d7 9b 3e e6 3a 3b 3f
       -0.14418255 0.26395494 0.30437866 0.73136747
0002e0 8c 9e 44 3d bb 1c e4 bd 64 df 94 3b aa c2 1a 3e
       0.048002765 -0.111382924 0.004543232 0.15113321
0002f0 f3 40 00 be 71 01 f5 bd e4 86 78 3e d5 c3 51 3e
       -0.12524776 -0.119631656 0.24270207 0.2048486
000300 a6 44 03 be c3 8d 08 bf 7e 59 cc 3d e5 84 0a 3f
       -0.12819156 -0.5334131 0.09978007 0.5410903
000310 1a 1a 26 3f 57 d0 e5 bd ac 7f d4 bd 45 00 f1 3d
       0.6488358 -0.11221378 -0.10375914 0.117676295
000320 7c 3d a8 3e 33 5e 26 be 89 74 2d be 3f 7d 20 3e
       0.3285941 -0.16246872 -0.16938986 0.15672778
000330 83 2d a2 3e 3d e0 bf 3e f8 34 43 be e6 57 8d be
       0.31675348 0.37475768 -0.19063175 -0.27606124
000340 9b 8c 93 3e 45 03 34 be e8 83 f5 bc f4 93 94 be
       0.2881821 -0.17579372 -0.029970124 -0.2901913
000350 0b 41 26 3e 65 3b 3c be 1f 22 0b bf 06 19 b7 3e
       0.1623575 -0.18382032 -0.5434894 0.3576128
000360 92 26 f9 3e 9f a6 bf 3d c6 6f c6 3e 58 39 73 bd
       0.4866224 0.09357952 0.3875715 -0.05938086
000370 10 aa b5 3d 90 96 db bd bc 15 da 3e 1b 1f 5e 3e
       0.088703275 -0.10722077 0.42594707 0.21691553
000380 8a fe 36 3e 73 51 74 be 36 af 4e 3e fb 4d e5 bd
       0.17870536 -0.23859195 0.20184025 -0.11196514
000390 19 c1 11 3f 0e 87 33 3e 77 be fa 3e 60 5f 57 3c
       0.5693527 0.17531988 0.48973438 0.013145298
0003a0 ad 78 0d bc d7 4b 36 be 96 7b 34 3c 5e b6 2f 3e
       -0.008634728 -0.17802368 0.011015793 0.17159411
0003b0 c2 5b 3a bf 1d e2 ce 3e 11 8d 39 3e f9 68 af be
       -0.7279626 0.40406886 0.18120219 -0.34259775
0003c0 2a 79 49 3e 40 b0 eb 3e 51 e2 b3 bd cb 32 5d 3e
       0.19675127 0.46032906 -0.08783401 0.21601407
0003d0 c9 76 9d 3e c8 c6 95 3e b8 f7 bb 3e 52 98 82 3d
       0.30754688 0.2925322 0.36712432 0.06376709
0003e0 2c dc 8d be b7 db 92 3e 5f c8 84 bd 52 a3 e2 be
       -0.2770704 0.28683254 -0.0648353 -0.4426523
0003f0 5c 94 0a 3f b6 a4 b0 3d 17 58 c0 be b2 ac f0 3e
       0.5413263 0.08625166 -0.37567207 0.47006756

arith.constant2 f4 [64, 128]
000000 e3 53 83 be a4 0d 36 3e 8b fb 33 3e 80 29 c1 ba
       -0.25649938 0.17778641 0.17576425 -0.0014737099
000010 92 09 a9 be 16 8c 43 bd 53 0e 36 be 06 87 ef 3d
       -0.33015114 -0.04774102 -0.17778902 0.116956756
000020 f0 3a 53 3e a6 9b 40 3e 08 4a 54 3f 0c c6 1e be
       0.20627952 0.18809375 0.8292546 -0.15505236
000030 4f d7 63 3f 86 08 98 3e 8a ba 1e 3d 7c 72 3d bd
       0.8900041 0.29694003 0.038752116 -0.04625176
000040 4d c0 6c 3e 6a 0a 2e bd c2 e1 4d 3e 08 71 bb be
       0.23120232 -0.0424904 0.20105651 -0.36609674
000050 16 ce ac 3d 08 b2 97 bc c2 5c e5 3e be 75 b5 bd
       0.08437745 -0.01851751 0.4479733 -0.08860348
000060 92 aa ae bd 6a df 8b bd b1 af 12 3e 1c 04 ac bb
       -0.085286275 -0.06829722 0.14324833 -0.0052495133
000070 b1 76 24 3e f5 e6 89 3e 44 06 00 bd d0 80 e1 3c
       0.16060902 0.2693402 -0.031255975 0.027527243
000080 33 73 a3 3d 5d 08 db 3d 92 a1 c7 bb d6 ee 00 bf
       0.07980957 0.106949545 -0.0060922587 -0.50364435
000090 83 61 bf bc 5b e6 c6 3d 65 74 f1 bc 83 dd 79 bd
       -0.023361927 0.097119056 -0.029474447 -0.061002266
0000a0 8e ee 2f 3d 31 51 90 be 2e 42 00 3f 06 4a 1e bb
       0.042952113 -0.28186944 0.5010098 -0.0024153008
0000b0 98 eb 46 be 3a 16 d8 3d fd 28 5c 3e ce e5 69 bd
       -0.1942581 0.105511144 0.21500011 -0.057103924
0000c0 ab b9 9c bd a4 f2 58 bd b2 0a 18 be 23 d7 7d 3e
       -0.07652601 -0.052965775 -0.1484783 0.247891
0000d0 a2 d4 66 3e 63 42 56 39 21 14 f3 3e 77 64 2a 3e
       0.2254205 0.00020433361 0.47476295 0.16639887
0000e0 5b 6d ba be f1 e8 13 3e 9b 27 2f be a1 6d 1f be
       -0.36411557 0.14444329 -0.17104952 -0.15569164
0000f0 39 c2 9a 3e 22 98 1f bd 17 97 00 3f bd de 7f 3e
       0.30226305 -0.038963445 0.50230545 0.24987312
000100 a2 9f e6 bd 10 7b af 3e f8 3d 36 bd c2 a8 98 be
       -0.11260916 0.34273577 -0.04449269 -0.29816252
000110 d0 8f dc 3e 8f ed 8c bd 8f fe 91 3e 77 7f 15 3e
       0.4307847 -0.06881248 0.28514525 0.14599405
000120 fe 01 4e be d0 db 57 3d 46 c0 ba bd 0f 7b 5d bd
       -0.20117947 0.052699864 -0.091187045 -0.054072436
000130 da e4 7f 3e c6 a2 7e 3f 17 6d 12 3e 8f da af 3d
       0.24989644 0.9946712 0.14299427 0.085866086
000140 d6 6c 9c be 6b f2 8e 3e b9 9f 2f 3c 7c 8e e8 3d
       -0.30551785 0.27919325 0.010719233 0.11355302
000150 92 d0 fd 3d 18 71 93 3c 88 b0 0c 3e e9 d0 a7 be
       0.12393297 0.017998263 0.13739216 -0.32776573
000160 fc 69 8e 3e f0 09 5c bd a8 0b 1b 3f 92 d4 8d 3e
       0.27815235 -0.053720415 0.6056466 0.2770124
000170 3c 02 94 3e 72 62 92 3d d3 ad 8c bc 6f 7b e3 3d
       0.28907955 0.07147683 -0.01717273 0.111075275
000180 af cb 77 be cd b7 a1 3e 98 0f 95 3e 27 cd 23 3d
       -0.24198793 0.3158554 0.2911346 0.03999057
000190 5a 67 2a 3f db 79 39 bd 7f b4 cc 3e 40 aa 75 bc
       0.6656395 -0.045282226 0.39981458 -0.014994204
0001a0 2a 85 9c be b3 ae 13 be 76 81 07 be 4d 04 d8 bd
       -0.30570346 -0.14422111 -0.13232979 -0.10547695
0001b0 d2 43 ad bc cd 32 80 3d 21 1d 85 3d 25 ba c3 3e
       -0.021150503 0.062596895 0.064996965 0.38227955
0001c0 7a 06 76 be 21 e7 cb 3e 5c f0 a4 bd 05 48 f3 bd
       -0.24025908 0.39824775 -0.080536574 -0.11878971
0001d0 70 f2 80 3d 3f ae 31 be 42 67 d7 3d 18 32 09 bf
       0.06296241 -0.17351626 0.10517742 -0.5359206
0001e0 b2 5c c2 3d 81 c8 03 be 4e 3e 95 3d 7a c2 99 be
       0.094903365 -0.12869455 0.07287274 -0.30031186
0001f0 c0 6f 08 be 1e 0b d5 bd 00 be 8a ba 79 03 be 3e
       -0.13323879 -0.10402511 -0.0010585189 0.37112024
000200 3f a2 34 bd fd 1f 1b bf 70 f4 e7 3c 26 97 0a be
       -0.044100042 -0.60595685 0.0283148 -0.13534221
000210 8c 74 d1 3e 5b ab 5a 3f a1 35 b7 3b 7b eb 3c 3d
       0.4090923 0.8541772 0.00559111 0.04612301
000220 5a e3 c2 3e 6b 6f f9 be ae 5d 49 3d e7 40 29 3e
       0.3806408 -0.48717818 0.049161606 0.16528665
000230 b7 55 40 3e 1b c5 0b 3e 5e 38 7f bf 4a c7 8e bf
       0.18782698 0.13649409 -0.99695385 -1.1154568
000240 d2 1f a4 bd a2 5c 76 be 34 b4 08 3e 0b c2 a4 3e
       -0.08013882 -0.24058774 0.13349992 0.32179293
000250 a2 1f a6 3e 7d b6 19 3e 16 ca a0 3d 4a 95 23 3f
       0.3244601 0.1501102 0.07851045 0.6389967
000260 16 ba f5 3e ab 4a 04 bf 80 fa ba 3b 73 1f 35 3e
       0.47993535 -0.51676434 0.0057061315 0.17687778
000270 1e ea 2d 3e 68 2d a4 3d db aa 1e 3e b0 ea 2a be
       0.1698384 0.08016473 0.15494864 -0.16691089
000280 d2 af ba be e1 80 5d be f3 39 d7 be 10 dd 4f be
       -0.36462265 -0.21631195 -0.420364 -0.20299172
000290 d0 01 f1 be e5 ef c4 3e 72 65 82 3e 10 46 80 be
       -0.47071695 0.38464275 0.25468022 -0.25053453
0002a0 de 31 01 bf af 71 be 3c 12 68 8b 3e ef e0 a7 3e
       -0.50466716 0.023247568 0.27227837 0.32788798
0002b0 d8 11 78 be f4 b9 96 bd 01 88 82 be 86 74 b8 3d
       -0.24225557 -0.073596865 -0.25494388 0.090066
0002c0 15 21 53 be 3b 03 61 3e 33 8f bc 3b ab 4a e3 be
       -0.20618089 0.21973889 0.0057543754 -0.44392905
0002d0 44 02 72 bf f7 9f 02 bb 33 99 58 3e 00 be cb 3b
       -0.9453471 -0.0019931772 0.21152191 0.006217718
0002e0 7d 09 06 3f 53 f7 b3 3e 90 7f 72 3c cf f1 0b be
       0.5235823 0.3514963 0.014800921 -0.13666461
0002f0 b0 28 2d bf b2 1a 83 3e 91 f3 23 3e 4c ae 28 bf
       -0.6764021 0.25606304 0.16010882 -0.65890956
000300 01 e5 66 be ce 04 c0 3d 12 57 ff 3d 3e bf 91 bd
       -0.22548296 0.093759164 0.12467779 -0.07116555
000310 9d ea 51 be ae 92 fc 3d 7b 41 7b 3d e2 10 c4 be
       -0.20499654 0.123326644 0.061341744 -0.3829413
000320 a1 4e 6c 3e ce c4 a8 3d a0 94 6e be 35 dd 32 bf
       0.2307687 0.082406625 -0.23298883 -0.69868785
000330 f4 d3 94 3e 7d 19 f4 3d ba c5 6f 3e 00 bc a8 3e
       0.29067957 0.11918924 0.2341527 0.32955933
000340 60 09 7f 3d ca f8 5c 3e e8 a3 2a bf e5 12 d6 ba
       0.0622648 0.2157928 -0.6665635 -0.0016332535
000350 b1 5a 1f be f3 34 c5 bd ec e5 31 bf 7e ac 02 be
       -0.1556194 -0.0962924 -0.6949146 -0.12761113
000360 ee 63 c9 3e e0 c4 9a 3c 44 22 fb bd 1b 84 4a 3e
       0.39334053 0.018892705 -0.12262395 0.19776957
000370 b0 dc 06 be e5 b1 26 be 1a d0 c6 3e bf a7 4b bd
       -0.13170123 -0.16278799 0.38830644 -0.049720522
000380 3b 1d 4d 3e 3b e8 59 3e 5a 50 19 3d 57 b8 89 be
       0.20030682 0.21279995 0.037430145 -0.26898453
000390 5a 27 98 be 37 d4 37 be 11 b9 db 3d 18 34 12 3d
       -0.29717523 -0.17952047 0.10728658 0.03569421
0003a0 49 ef bd 3e dc 30 2a 3f ef 2d 0d 3d 0b f1 05 3e
       0.37096623 0.66480803 0.034467634 0.13080232
0003b0 48 66 2e 3e 76 1c a7 bd 32 32 23 bf 1b 6c 43 be
       0.17031205 -0.08159725 -0.63748467 -0.19084208
0003c0 19 01 c3 3d 48 c8 7c be e5 12 bb 3e 34 12 39 3f
       0.09521694 -0.24685776 0.36537853 0.722934
0003d0 51 2d 12 3e 57 39 2b be 5a 93 1b 3e 13 07 89 be
       0.142751 -0.16721092 0.15192929 -0.2676321
0003e0 b4 5c 23 3e 22 3b ec bd 02 50 30 be 7d 34 28 bf
       0.15953332 -0.11534716 -0.1721802 -0.6570509
0003f0 8b 30 23 be 34 97 07 bd c9 b1 9b 3c b5 cb 1d 3e
       -0.15936486 -0.033103183 0.019005673 0.1540974

arith.constant3 f4 [16]
000000 ea c4 19 3d 11 1f 95 bd a6 8d 92 3d e6 a9 88 be
       0.037541308 -0.07281316 0.071559235 -0.26692122
000010 01 c1 6c 3e dd 6a 90 bd ed 80 80 3e 30 98 84 be
       0.231205 -0.070516326 0.25098363 -0.2589736
000020 eb d1 cb be bb de 4f be 3e d1 1f be cc cf 2f 3e
       -0.39808592 -0.20299809 -0.15607163 0.17169112
000030 fd 68 f2 3d 1f f3 fd 3c bd 57 b9 3e f6 6d 18 be
       0.11836431 0.030999718 0.36199751 -0.14885697

arith.constant4 f4 [32]
000000 c3 0c bb bd c4 f9 2d 3e 57 b0 ea 3e fb 12 6a bd
       -0.091332935 0.1698981 0.45837662 -0.057147007
000010 2b ae 56 bd e6 62 72 3e 36 8f aa 3e 05 1d 86 3d
       -0.052412193 0.2367054 0.33312386 0.06548504
000020 fa 42 c0 3e d1 b7 60 3e 47 75 c2 bc 5a c7 c1 3d
       0.375511 0.2194512 -0.023737563 0.094618514
000030 69 35 07 3e 76 02 89 3e b2 7b c0 3d ae b3 09 3e
       0.13203968 0.2675969 0.09398593 0.13447449
000040 71 87 09 be e8 69 41 3e 5c d7 f9 3e c9 78 b5 bc
       -0.13430573 0.18888056 0.4879712 -0.022152321
000050 a4 04 ce be 95 8a 61 3e ef 5a ad 3d d1 31 16 3e
       -0.40237916 0.22025521 0.0846461 0.14667441
000060 98 a8 29 bd 5e 9e 41 3d dd c5 34 3c b0 2b 9a 3e
       -0.04142055 0.04727017 0.011033502 0.30111456
000070 ca 3f ee 3e a3 cc 8c bd b6 98 93 3d fa 36 b2 be
       0.46533042 -0.06874969 0.07206862 -0.3480757

arith.constant5 f4 [64]
000000 69 aa 45 bc 0f 09 4d be 2a be 45 3e af 0f dd 3d
       -0.012064555 -0.20022987 0.19310823 0.10794007
000010 cc 5a 08 3e 81 6c ef bd 48 c1 9a bd 93 f4 6f 3d
       0.13315886 -0.11690617 -0.07556397 0.058582854
000020 02 d1 8f bc 1d 0f 78 3e d0 7f c8 bc 87 07 28 3e
       -0.017555717 0.24224515 -0.024475008 0.16409121
000030 56 ec 28 3d ee fe 3e be a1 2d 21 bd f5 80 60 3e
       0.041241013 -0.18651935 -0.039350156 0.21924193
000040 48 59 e6 bd 26 ff af bd e6 e7 a8 bc e9 5d 15 3e
       -0.11247498 -0.085935876 -0.02061839 0.14586605
000050 ac 97 e8 bc ff 24 40 be 4a 78 03 be 4c 0f b2 bd
       -0.028392635 -0.18764113 -0.12838855 -0.08694324
000060 41 88 01 3e 62 dc 98 bd 1f f6 83 3e 14 7a 07 3e
       0.12649633 -0.0746391 0.25773713 0.13230163
000070 02 1b 08 be 1d 02 ed 39 c6 7d 3b be 44 38 de 3e
       -0.13291553 0.00045205737 -0.18309698 0.43402302
000080 49 73 01 3e 45 df 39 3d 46 2d 97 bd 33 16 fa bd
       0.12641634 0.045378942 -0.07381682 -0.122112654
000090 6f fc 31 3e 87 58 04 be 55 d1 24 be 4a a7 5e 3c
       0.17381452 -0.12924396 -0.16095479 0.0135896895
0000a0 08 d3 44 bd 97 11 85 be 39 cf 37 bd 8d 87 79 3e
       -0.048052818 -0.25989982 -0.044875357 0.24368115
0000b0 9b 5c 0d 3e 22 be 4e bd aa 07 c4 3d a7 8f 92 3d
       0.13804857 -0.050474294 0.09571774 0.07156306
0000c0 fc e9 76 3e f0 c4 5f be a5 24 52 3e 69 a2 ac bd
       0.24112695 -0.2185247 0.20521791 -0.08429415
0000d0 60 47 41 be bb 11 15 3e 0b be 00 3e 1b 03 9b 3e
       -0.18874884 0.14557545 0.12572496 0.30275807
0000e0 a1 d5 8e be 85 56 15 3e 91 86 13 3e 4a 88 06 bd
       -0.2789736 0.14583786 0.14406802 -0.03284482
0000f0 76 ec 1c 3e 7c cf 36 3e e7 30 33 3e 6f 70 fa 3d
       0.15324578 0.17852587 0.17499124 0.12228476

sequential_7_1/dense_27_1/BiasAdd/ReadVariableOp f4 [128]
000000 e3 6b 13 3e 72 4c 93 bd 00 00 00 00 00 00 00 00
       0.14396624 -0.07192315 0.0 0.0
000010 f7 ee 5f 3d 62 e8 c5 3d 2a ab ac bb b8 eb 7d bc
       0.054671254 0.09663464 -0.005269428 -0.015498094
000020 d7 0d 22 be 6c ea f5 bd 40 63 1d be 5f 7c 8e 3d
       -0.15825592 -0.12007603 -0.15369892 0.06957316
000030 32 79 2b be bc 68 09 be b5 fa a1 bd 69 29 fd 3d
       -0.16745451 -0.13418859 -0.07909147 0.12361414
000040 99 38 b0 3d 8e fc 94 bd af 77 f0 bb 86 97 a8 3d
       0.08604545 -0.072747335 -0.007338486 0.08232026
000050 b3 4f b0 3d 00 00 00 00 bf 8f 49 be 90 c9 15 bb
       0.086089514 0.0 -0.19683741 -0.0022855736
000060 9b 4c a3 bd d7 73 95 3d 00 00 00 00 74 ba f8 bd
       -0.07973596 0.07297485 0.0 -0.12144938
000070 dc bd fe 3b 8d a1 33 be 00 00 00 00 39 d2 34 bc
       0.007774098 -0.17542095 0.0 -0.011036449
000080 f9 a3 d1 bd ed 8e f8 3d d0 11 e4 bd 9f 9c 20 3e
       -0.102363534 0.12136636 -0.1113621 0.15684746
000090 8b c4 93 3d 2c 24 c0 bd e8 fe 77 3c e5 87 42 3d
       0.07215222 -0.09381899 0.015136458 0.04749288
0000a0 7d 36 26 be e2 db 24 3d ce 50 fa bd 9f 79 9f bd
       -0.16231723 0.04024876 -0.122224435 -0.07786869
0000b0 82 6b 89 3c 00 00 00 00 9b 6f 5a be 2e 9a 2a bc
       0.016774897 0.0 -0.21331637 -0.010412736
0000c0 48 44 8f 3d b7 1d b4 3c 24 4e 87 bd a2 90 ef 3b
       0.069954455 0.021986825 -0.06606701 0.0073109427
0000d0 19 1b 3f bd bf cb f4 3c ca 1c 87 be 00 00 00 00
       -0.0466567 0.02988231 -0.26389152 0.0
0000e0 65 d7 5d 3d f1 80 e6 bd 00 00 00 00 00 00 00 00
       0.054160494 -0.11255062 0.0 0.0
0000f0 bf 9f 24 be 56 2b 48 be fc 75 01 bd 2c d7 46 3b
       -0.16076563 -0.19547781 -0.03160666 0.0030340655
000100 72 39 23 bb ea d0 b8 bd 00 00 00 00 33 4f fa 3d
       -0.0024906066 -0.09024222 0.0 0.12222137
000110 ec 87 bf bb 00 00 00 00 a3 1c 14 be 6c 20 bb bd
       -0.0058450606 0.0 -0.14464049 -0.09137043
000120 60 2a eb 3d 00 00 00 00 c1 07 fe 3b 63 2d d1 bd
       0.11482692 0.0 0.007752389 -0.10213735
000130 b4 fc 61 be 96 14 0b be 92 77 2a be d3 f2 24 bd
       -0.22069055 -0.13582072 -0.16647175 -0.040270638
000140 66 72 b5 bd 4f f6 68 be 4f bf ac 3d a2 87 96 bc
       -0.088597104 -0.2275021 0.08434927 -0.018375222
000150 00 a6 d4 bb 00 00 00 00 ca 14 35 bc 54 b0 21 3d
       -0.0064895153 0.0 -0.01105232 0.0394748
000160 d2 a1 b4 bd 00 00 00 00 82 52 09 be 9c 12 07 bb
       -0.08819927 0.0 -0.1341038 -0.0020610457
000170 08 85 20 be 00 00 00 00 af 85 6f 3d 1a e9 08 be
       -0.15675747 0.0 0.0584771 -0.13370171
000180 3c 9e 8f bd 66 72 03 be 41 df 7f be 2c 76 a5 bd
       -0.07012603 -0.12836608 -0.24987508 -0.0807918
000190 93 bf ff bd d2 c2 48 be 54 6a 37 bd 00 00 00 00
       -0.12487712 -0.19605568 -0.044779137 0.0
0001a0 e6 db 0c 3e 41 2c 1d 3e 8d ac a6 bc 00 00 00 00
       0.1375576 0.15348913 -0.02034595 0.0
0001b0 90 44 33 bd 10 74 2f be 86 bf 03 be ab 8c 43 be
       -0.04376656 -0.17134118 -0.12866029 -0.1909663
0001c0 35 27 c3 3d ea 1b 84 bd 12 34 15 3c a2 bc 08 3c
       0.095289625 -0.06450637 0.009106653 0.008345755
0001d0 00 00 00 00 00 00 00 00 d8 ef 26 bc 7a 19 b3 3d
       0.0 0.0 -0.010189019 0.08745094
0001e0 2c 17 67 be 07 54 5b bc 00 00 00 00 6f 37 cb bd
       -0.22567433 -0.013386733 0.0 -0.099226825
0001f0 00 00 00 00 42 1d 8b 3c 54 a4 ce bb 7e a8 05 be
       0.0 0.016981725 -0.0063062105 -0.13052556

sequential_7_1/dense_27_1/MatMul f4 [128, 11]
000000 2f 99 39 3e d1 c6 d4 be 01 ec 2b 3d 64 04 6a 3d
       0.18124841 -0.41557935 0.041973118 0.057133093
000010 a8 1f 47 bc d9 f6 30 3e 58 3f 8f bd 8c 68 69 be
       -0.0121535435 0.17281665 -0.06994504 -0.22793788
000020 bf a5 8c 3e da b9 7a be cc 44 41 bf 9a 9f 32 be
       0.27470204 -0.24484959 -0.754956 -0.17443696
000030 4d 1a 29 3e 7b a2 a5 bd 20 8a 76 be 90 60 a9 3e
       0.16513939 -0.08087631 -0.24076128 0.33081484
000040 6d cc 34 bf 48 b7 51 ba fe 03 16 3d cc 17 32 3f
       -0.7062443 -0.00080000283 0.0366249 0.6956756
000050 a3 51 5f 3e 0b 7b a7 bd f4 23 e6 bd 52 ef 8e bd
       0.21808486 -0.081777655 -0.11237326 -0.069792405
000060 58 29 48 be f7 a5 d6 bd 30 42 1f 3c be 90 c7 3d
       -0.19547021 -0.10480874 0.00972037 0.09744404
000070 00 5d 35 ba 2d 1d 1d be 94 ea 4e be 34 b1 8e bd
       -0.000691846 -0.15343161 -0.20206672 -0.069673926
000080 59 20 23 3e b4 6a 1a be 4a 40 be 3d 41 82 26 be
       0.15930308 -0.15079767 0.09289606 -0.16260625
000090 d9 40 18 3e 56 af 07 be 19 74 48 be d9 31 31 3e
       0.14868487 -0.13250479 -0.19575538 0.17304172
0000a0 9c 0f 11 bd 39 56 45 be 70 ef 64 bc b4 fa d1 bd
       -0.035415277 -0.19271173 -0.013973102 -0.10252896
0000b0 41 3f e5 3d 8d 67 a7 be 38 5d 52 3e 44 e3 47 3c
       0.11193705 -0.3269619 0.20543373 0.01220018
0000c0 da a1 6f bd f4 30 48 3f c2 4e bd bd 13 37 41 3d
       -0.058503963 0.78199697 -0.092435375 0.047171663
0000d0 39 b7 6f be 55 c0 b3 3d 38 6b 1f bf b7 4c 91 3e
       -0.23409738 0.08776919 -0.6227298 0.2837884
0000e0 e2 31 f9 bc fc 86 6b bd 75 26 4b 3c ce 2c bd bb
       -0.030419294 -0.057501778 0.012399306 -0.0057731634
0000f0 74 12 bb 3e 13 b4 34 3e 81 38 93 be 68 06 aa 3e
       0.36537516 0.17646818 -0.28754047 0.33208013
000100 de 1d dc bd 61 3e 9e 3f 83 e6 67 bd fe da 2a bd
       -0.10747884 1.2362787 -0.056616317 -0.041712753
000110 61 cd e9 3d c3 86 95 bc 7c 08 f5 bd 13 1d a7 bd
       0.11416126 -0.018252736 -0.11964509 -0.08159842
000120 dd 4a 91 3d e1 2d 9f 3d 05 6d 09 bd 95 d1 b8 3c
       0.07094357 0.077724226 -0.033551235 0.022560874
000130 4c d0 e2 3c 43 72 0d be f8 31 f5 bc 6c 67 cf bc
       0.027687214 -0.13813119 -0.029931054 -0.02531787
000140 73 de f8 3c 74 ef 95 bd 4e 98 09 bb ec c2 e8 3c
       0.03037951 -0.07321063 -0.0020995322 0.028413258
000150 fd 55 f7 bd 9d 3a 93 bd 65 e1 82 bd 3b 43 1b be
       -0.12076948 -0.07188914 -0.06390647 -0.15162365
000160 46 30 dc be ec 05 17 3e 23 33 b6 3e 8f 11 a4 ba
       -0.4300558 0.14748353 0.3558589 -0.001251744
000170 e0 a4 df 3d 95 c5 10 3e d8 91 8d bc c5 8e 87 3d
       0.10920119 0.14137872 -0.017281458 0.06619028
000180 1b 77 61 3c 6b 4d 99 3d 9c d0 81 bd ff 22 8b be
       0.013761307 0.074854694 -0.06338617 -0.27175137
000190 0e ca 9c bd 24 40 07 3e 71 d5 23 3e c1 41 85 3e
       -0.076557264 0.13208061 0.1599939 0.2602673
0001a0 20 d0 a6 ba e4 12 51 3d 5e da 9a bd 57 75 43 3f
       -0.0012726821 0.051043406 -0.075611815 0.7635092
0001b0 ff e7 17 3f 03 57 35 bf a7 8c a6 3c 22 2e d9 3e
       0.5933837 -0.70835894 0.02033074 0.4241801
0001c0 a8 1a 83 bd d0 7b e9 3d 29 c3 29 3d 41 30 58 3e
       -0.06401569 0.114005685 0.041445885 0.21112157
0001d0 dd 0a 7a 3e 4c 55 96 be f9 50 ca 3e 51 3d 14 3e
       0.24418207 -0.2936195 0.39514902 0.14476515
0001e0 d7 1b 0f be 3f d2 ea bd ca 9b c7 be f0 ad e1 bd
       -0.13975464 -0.114658825 -0.38986045 -0.11019504
0001f0 76 47 ed 3c cc 7d 85 3e 71 1d 92 3e 46 78 86 be
       0.02896474 0.26072538 0.28538087 -0.26263636
000200 d7 b0 97 3e 57 6e 16 bd 0f cd b8 bd 87 66 37 3e
       0.29627106 -0.036726322 -0.09023487 0.17910205
000210 c3 63 9b be 37 34 93 3e 3b 3f 83 3e 71 f4 63 3e
       -0.3034955 0.28750774 0.2563418 0.22261216
000220 8a af cb bd 95 6d 30 3d 95 8e 17 3e 23 df 46 be
       -0.09945591 0.043073256 0.14800484 -0.19421057
000230 18 f6 14 3f 9a a8 21 3d 6b a3 7b 3d 68 f2 7d be
       0.5818801 0.03946743 0.061435144 -0.24799502
000240 ec 68 50 3e 5b 61 a5 3d 1b 71 9f bd 4e e9 b0 3e
       0.20352525 0.0807521 -0.07785245 0.34552997
000250 c5 36 97 be 1d ba 34 3e af 3f a1 bb 09 05 bd 3e
       -0.29533973 0.17649122 -0.0049209218 0.36917904
000260 59 5e 9a bd 30 11 4c 3e 4f 7c 35 be 59 57 b7 be
       -0.07537527 0.19928432 -0.17723201 -0.35808828
000270 39 f4 60 3e bb f8 ea 3d 3e 87 13 3e d3 0f 9a be
       0.21968164 0.11473223 0.1440706 -0.30090198
000280 dd dc ca bd e0 69 55 3d 8a 22 13 bf 55 a2 2c 3d
       -0.099054076 0.052102923 -0.5747458 0.042147
000290 01 02 1a bf 22 dc 78 3e cf b5 8a 3e d9 6c 03 bf
       -0.6015931 0.24302724 0.27091834 -0.51337963
0002a0 38 55 0d be e8 d2 42 bd c2 29 7e be fd 67 8d bd
       -0.1380204 -0.047564417 -0.24820617 -0.069046
0002b0 03 06 13 3d 6e fb c8 bd 94 91 63 3e 96 b6 2c bf
       0.035894405 -0.098135814 0.22223502 -0.67466104
0002c0 b1 cd a0 3e 1c 70 b9 3d ce eb 1a bf 2d 0d 33 3c
       0.3140693 0.09054586 -0.6051606 0.010928434
0002d0 8c 50 00 3e 9c 35 3d 3d 0d 1d 31 bd 32 54 15 bd
       0.12530726 0.046193704 -0.043240596 -0.036457248
0002e0 46 49 08 38 22 c4 0d bd 0d 88 de 3d 30 15 20 3d
       3.2493168e-05 -0.034610875 0.108657934 0.039082706
0002f0 b1 37 44 be 58 e9 52 3e f0 5e 22 3e 19 a6 84 be
       -0.1916187 0.20596826 0.15856528 -0.25907972
000300 17 94 bd 3c ef 46 a3 be a8 bd c3 be de 25 3a 3d
       0.023141904 -0.31890056 -0.38230634 0.04544627
000310 35 0c f4 3c d0 09 36 bd c4 33 04 bd d4 42 cc 3e
       0.029790977 -0.04444295 -0.03227593 0.39894736
000320 cc 10 17 be f5 37 97 be 07 f7 63 3e 5c 35 8a 3e
       -0.14752501 -0.2953488 0.22262202 0.26993835
000330 7e 24 84 bd c4 91 23 bf 08 86 15 3c a4 6d 77 be
       -0.06452273 -0.63894296 0.009126194 -0.24162918
000340 9f 79 cb bc 9a 44 9a 3d fd d0 c2 be de 3a ce be
       -0.024838267 0.07532616 -0.3805007 -0.40279287
000350 15 dc 72 3e 98 94 77 3e fa 1b 80 3e 5d 9e b5 bd
       0.23716767 0.24177778 0.25021344 -0.08868096
000360 80 75 83 3e f2 8c 81 3c 22 b7 ac bc 24 9e cf bc
       0.25675583 0.015814278 -0.021083418 -0.025343962
000370 e3 53 98 bd 0f 42 b2 3c bd 30 04 3e 0a 8e 23 3e
       -0.07437875 0.021760015 0.12909217 0.15972152
000380 04 0e 9c bd f6 45 8b 3f 23 77 dc 3e c4 23 0e be
       -0.07619861 1.0880725 0.43059644 -0.13880831
000390 ed 4a 1f 3e bf 37 40 3d 3e 77 ae be a5 f5 03 3e
       0.15555926 0.046928164 -0.3407535 0.12886675
0003a0 90 e8 91 3c 78 c2 09 be bf e5 d1 bd e0 db 36 be
       0.01781109 -0.1345309 -0.10248899 -0.17857313
0003b0 10 07 d9 bc c2 68 83 3d 21 64 07 3e 26 48 f4 3d
       -0.026492625 0.06416465 0.1322179 0.11927824
0003c0 4d 7b b9 bd a6 0f a2 bd d4 64 b6 bd bd b8 d9 3e
       -0.09056721 -0.07913141 -0.0890595 0.42523757
0003d0 19 32 00 bf 31 3c 55 3e af e5 41 3e e5 75 33 3e
       -0.5007644 0.20823742 0.18935274 0.17525442
0003e0 d9 6f 98 bd 66 d1 e1 3a d5 dd aa 3d 19 32 06 bc
       -0.07443208 0.0017228543 0.08343092 -0.008190655
0003f0 e8 41 4a 3d 23 cb 3d be 6b 13 23 3e 2c 0f 27 3e
       0.04937926 -0.18534522 0.15925376 0.16314381
